chapters/models/bitmoji_cnn_augmented.pt (torch, 173567 bytes, 7 tensors)

main.0.weight f4 [8, 3, 5, 5]
000000 dc 66 dd bd f7 bd dc bd 23 de c7 bc 3a 1e cd 3d
       -0.108106345 -0.107784204 -0.024397915 0.10015531
000010 22 c6 c2 3d c3 ea 3e 3d 94 21 82 3d 24 03 04 bd
       0.09510447 0.046610605 0.06354061 -0.032229558
000020 03 31 90 3c 48 19 97 3d d5 d0 27 be c6 03 97 bd
       0.017601496 0.07377869 -0.16388257 -0.073737666
000030 bf e5 03 be 40 ae 03 3e 5f c7 83 3c 89 67 35 be
       -0.1288061 0.1285944 0.016086278 -0.17715277
000040 3a 6b 0e be 70 d0 ba bd 79 1b bb 3c 57 e6 d2 3c
       -0.13908091 -0.091217875 0.022840248 0.0257446
000050 35 d4 59 bd 97 16 45 be 72 22 0f be 47 38 06 3c
       -0.053180892 -0.19246899 -0.13977984 0.0081921285
000060 58 de fc 3d a0 c6 b3 bd 93 46 8e bc 30 fe c1 bd
       0.12347096 -0.08778119 -0.017367637 -0.094723105
000070 50 ab 9b 3d 2f 0c a0 3c a8 5d 98 bd c3 98 39 3d
       0.07601035 0.01953706 -0.074397385 0.0453117
000080 e1 10 2b 3d d5 06 24 bd ae cf ed 3d c6 3e c4 bd
       0.041764144 -0.040045578 0.116118774 -0.095822856
000090 28 57 cf bd b8 41 8b bd 33 37 81 bd 56 7e 9c 3d
       -0.101240456 -0.06799644 -0.063093565 0.07641284
0000a0 e6 47 ff bc ad 52 a2 bd 5a 6e 3a bd 02 b6 eb 3d
       -0.031162214 -0.079259254 -0.045515396 0.115093246
0000b0 48 08 04 3e b6 4f f2 bd 80 46 cd bc 07 30 2e 3d
       0.12893784 -0.1183161 -0.025058031 0.04252627
0000c0 52 6f fd bc 59 88 a6 3d 11 31 a7 3d 26 b9 67 ba
       -0.03093687 0.08131475 0.081636555 -0.000883954
0000d0 c4 a1 33 bb bb 1f 3a bd e6 ae 02 3e 66 6b 60 3d
       -0.0027409652 -0.045440417 0.12762031 0.054789923
0000e0 6d f6 28 3d 56 a8 75 3d 10 9c 95 bd d8 17 09 3e
       0.041250635 0.05997499 -0.07305157 0.13388002
0000f0 cd 29 b2 bd 46 39 60 bd a1 6f a2 bd 4f c4 6d bd
       -0.08699379 -0.05474212 -0.07931448 -0.058048543
000100 e5 1a 8e 3d ad 5f a5 bd 3d 88 2d 3c 2a f4 f2 3c
       0.069387235 -0.08074889 0.010591564 0.029657442
000110 d7 da 02 bd 0b c9 bd bb 79 db e1 bd 34 b1 ee bd
       -0.031946983 -0.0057917885 -0.11028189 -0.116548926
000120 c0 38 8f 39 44 80 12 3e 7b 18 19 3d a1 89 c9 3c
       0.00027317367 0.14306742 0.037376862 0.02460176
000130 a0 d0 e0 bd cb 52 ec bd 5a 1e f1 b9 15 51 04 bd
       -0.10977292 -0.11539229 -0.00045989716 -0.03230389
000140 24 8b 85 bd 55 74 14 3d 3f 67 f2 bd c6 e7 68 bd
       -0.065206796 0.036243755 -0.11836099 -0.05686166
000150 03 c3 c5 bd c3 57 c5 3d e8 e8 46 3d 65 3a 93 bd
       -0.09656336 0.0963588 0.04856196 -0.07188872
000160 27 42 34 bd 2e 22 ff bd 7c d3 bd 3b c8 5a bc bd
       -0.0440084 -0.12457691 0.005793033 -0.09197003
000170 f4 2b fe bd 51 4d 65 bb 0e 2c 77 bd 09 92 4d bd
       -0.12410727 -0.003498871 -0.06034475 -0.050188098
000180 83 81 54 bc f9 12 c1 3d d7 cd 53 3c 41 58 a6 bd
       -0.012970331 0.09427447 0.012927494 -0.08122302
000190 c3 68 c9 3d 17 1c 10 bc fb ce 81 3a 6a e1 e0 bd
       0.09834435 -0.00879576 0.0009903604 -0.10980494
0001a0 d0 11 c5 bd d2 90 a8 bc 80 3d 2a bd 4c 57 16 bd
       -0.09622538 -0.020576868 -0.041562557 -0.036704347
0001b0 cd 4f f2 bd 83 f9 6c 3d 0e c5 91 bd a2 f8 03 3d
       -0.11831627 0.05785514 -0.07117663 0.032219537
0001c0 90 4b 6a bc ee fb c4 bd 5a 80 7e 3b 86 91 a6 bd
       -0.014300242 -0.09618364 0.0038833828 -0.08133225
0001d0 23 3b 0c bd b2 b4 da 3d 6f 80 df bc 0b 41 90 bc
       -0.034236085 0.10678996 -0.027282922 -0.01760914
0001e0 3e fa 2e bc b6 0f d4 bd 01 f6 e2 3b 76 6e 9f bb
       -0.01067978 -0.10354559 0.0069262986 -0.004865463
0001f0 be 7a 49 bc b4 13 ef bd bd 65 23 bd b5 e4 67 bd
       -0.01229733 -0.1167368 -0.039891947 -0.056614596
000200 62 b1 9e bb 13 8b 96 3c ea 01 c2 bd 47 8c ab 3c
       -0.004842923 0.018376863 -0.09473021 0.020940913
000210 87 aa 40 bd 20 4e ab 3d 60 41 54 bd 44 2a 8c 3c
       -0.047037628 0.083645105 -0.05182016 0.017109998
000220 16 37 03 be cd d7 25 bd 99 b2 af 3d a1 0b ce bd
       -0.12813982 -0.040489007 0.08578987 -0.10060812
000230 2b 12 c9 3d 16 ff 62 3d ef d2 a6 bd 2c 2a 24 bd
       0.098179184 0.05541905 -0.08145701 -0.04007928
000240 b1 6f da 3d 13 a3 a8 bd bf 46 c1 bd 35 20 5c 3d
       0.10665835 -0.08234229 -0.09437322 0.053741653
000250 96 9d 5e bd 34 5e b7 bd f5 2f ad 3d 4a dc f0 ba
       -0.054349504 -0.08953515 0.08456413 -0.0018376198
000260 9e e5 d1 3d 5a ca e0 3b 0f a2 cd 3c 8e cb 4d 3d
       0.10248874 0.0068600597 0.02510169 0.050242953
000270 0b 7c 41 bd e9 f2 07 3d f2 25 08 bd eb ee a2 bc
       -0.047237437 0.03319064 -0.033239312 -0.019889316
000280 4c 59 5c 3d 94 1e 69 bd 8f 8d 84 3d 70 c2 e6 bd
       0.053796098 -0.056913927 0.06472313 -0.11267555
000290 63 29 99 3c 93 24 43 bd f7 89 81 3d 22 53 53 3d
       0.018696493 -0.0476423 0.06325143 0.051592954
0002a0 73 9c 58 3c 37 b2 3d bc 8b d8 59 3b c6 1b 1f 3d
       0.013220894 -0.011578134 0.0033240642 0.038844846
0002b0 31 c9 01 bd e6 a8 c2 bd a8 ff b0 3d d5 ae 05 3e
       -0.03168601 -0.09504871 0.086425126 0.13054974
0002c0 19 72 94 3d 4e 5c 8d bd fb 7a 91 3d ea d3 51 bc
       0.07248325 -0.06902371 0.07103535 -0.012806872
0002d0 a2 0b 25 3d e9 e5 25 bd 7e d4 87 bd 81 54 cc 3c
       0.040294297 -0.040502463 -0.066323265 0.024942638
0002e0 77 4a f4 3d 87 07 e7 bc e5 89 ba bd 18 ff 0f be
       0.119282655 -0.028201832 -0.091083325 -0.14062154
0002f0 35 8d 61 3d 10 57 b2 bb 06 b6 fc 3c 3e 83 f0 bd
       0.055066306 -0.0054425076 0.030848514 -0.117437825
000300 19 02 29 be ec 3c 97 bc 77 a5 eb 3d b8 75 43 3d
       -0.16504706 -0.018461667 0.11506169 0.047719687
000310 ae c1 82 3b d3 8d eb bc 04 9d 05 3d f2 64 7c bc
       0.0039903736 -0.02875415 0.032620445 -0.015404927
000320 df 09 71 bc 16 15 9b 3d f5 5b b2 3d 83 89 13 3e
       -0.014711826 0.07572381 0.08708946 0.14407925
000330 5c 37 31 3e e0 d1 9d ba f4 3a 3b be 9c 39 0f 3c
       0.17306274 -0.0012040697 -0.18284208 0.0087417625
000340 bf 8b 80 bd 1b c4 dd 3b e0 0b ab bd 4f 97 aa be
       -0.062766545 0.0067677624 -0.08351874 -0.33318564
000350 42 af ae be 9d 39 2a be 31 48 b2 bd 15 8d c4 bb
       -0.34118086 -0.1662354 -0.08705176 -0.0059982636
000360 38 5e b8 be c9 19 93 be 6c a1 d0 3c f8 d6 57 3d
       -0.36009383 -0.2873061 0.025467597 0.052695245
000370 8e 2c 4b 3d d3 0f 97 be a5 47 de bd fe 4e ef bc
       0.049603038 -0.2950426 -0.10853509 -0.029212471
000380 bd 2b f0 3d 27 6b 0e 3c 33 6d 0b be c6 a4 d0 bc
       0.117270924 0.008692539 -0.13615875 -0.025469195
000390 3f 42 14 be 9a 4e 5b bc 51 4a 2a be 53 a6 85 bd
       -0.14478396 -0.013385439 -0.16629912 -0.065258645
0003a0 8a db 9f bd db e9 31 bd 8a 51 bd bd ab 3a 0f be
       -0.07805546 -0.043435913 -0.09244068 -0.13987224
0003b0 6b 43 04 3d c3 52 f0 3c 55 eb 1d bd b0 44 ce bd
       0.032290857 0.029336339 -0.03855451 -0.10071695
0003c0 68 f1 02 3d 1b 72 ff bd 27 6e 3a bd 69 c5 a3 bd
       0.031968504 -0.12472936 -0.045515206 -0.079966374
0003d0 5e cc d7 bd ea 12 0b be b1 42 aa bd fa 5a 1e 3c
       -0.10537027 -0.13581434 -0.083135016 0.009665245
0003e0 25 12 30 be 9e e1 1c be 27 ee 50 3d 3a d5 88 3d
       -0.17194422 -0.15320441 0.05100837 0.06681295
0003f0 98 e1 cb 3d 4b 52 1f 3d 93 25 1c 3d d6 25 ca 3d
       0.09955138 0.03889684 0.03812177 0.09870498

main.0.bias f4 [8]
000000 7c 9e 16 bc e3 26 47 bd f0 bd d5 3c 25 02 7d be
       -0.009193059 -0.04862107 0.026091546 -0.2470785
000010 d9 f9 fe 3d ab 4f fc bd cd ac 28 be 26 ee 5e 3e
       0.124499984 -0.12319883 -0.16472168 0.21770534

main.3.weight f4 [4, 8, 3, 3]
000000 90 79 d3 3d 65 0c 24 3e 49 38 50 3e bd 40 06 3e
       0.103259206 0.16020353 0.20333971 0.13110633
000010 12 95 4d 3e 72 39 1d 3e fa 06 d0 3d 56 46 d2 3d
       0.20076397 0.15353945 0.10157581 0.10267322
000020 2f 81 c2 3d c0 58 ba bb 58 2b 8a bc 7a 88 c4 3d
       0.09497296 -0.0056868494 -0.016866371 0.09596343
000030 d1 fc 55 bd 03 c8 85 3d 45 29 84 3b ad e6 f6 3d
       -0.052243058 0.0653229 0.00403324 0.12055717
000040 40 d5 a7 bc f9 d3 da 3d ed 18 af bd 90 62 5d 3b
       -0.020487428 0.10684962 -0.08549676 0.0033780672
000050 1a 35 b8 3c 1d aa 32 be ec 43 da 3c ce 6a 69 3d
       0.022486258 -0.17447706 0.026643716 0.056986623
000060 3f 03 5e be 76 aa 43 3b 1f e6 79 bd 8c 29 d2 bc
       -0.21680926 0.0029856241 -0.061010476 -0.025654577
000070 06 b9 a2 bd e0 95 04 be 69 1b 67 be 89 23 84 bd
       -0.07945447 -0.12947798 -0.2256905 -0.0645209
000080 87 c4 41 3d d2 d6 6a be 62 4a df 3c ca fe cf 3d
       0.047306564 -0.2293351 0.027257148 0.10156019
000090 11 b4 c5 bc 25 50 47 3c 81 78 05 3e fc a5 2c 3e
       -0.024133714 0.012165104 0.1303425 0.16860193
0000a0 06 5d 41 3d 17 4e d5 bd bd 03 35 3e c5 2e 38 3b
       0.047207855 -0.10415285 0.17677207 0.0028104049
0000b0 f1 6f 5c 3d c6 f4 1b bd 11 00 5a 3d 6a fb a4 3c
       0.053817693 -0.03807523 0.05322272 0.020139415
0000c0 78 12 a3 3b 0c b7 2b 3c 36 3d 9e bd f3 3e 49 3c
       0.004976567 0.0104806535 -0.07726519 0.012283075
0000d0 02 b2 1a 3c 64 54 b0 3d ad 5f 8e bd 62 17 52 bd
       0.009441854 0.08609846 -0.069518425 -0.05129183
0000e0 0e 5b 5e bd e3 3f c9 3d 4e d5 b6 3d 9f 07 67 3d
       -0.054286055 0.098266385 0.089274034 0.056403752
0000f0 50 4c 7b bd 4a e3 98 bd a9 84 f8 bb c2 c7 92 3e
       -0.061352074 -0.07465227 -0.0075841737 0.28668028
000100 12 b3 55 3e 07 ad 11 3e d3 d5 d1 3d 85 0c 73 3e
       0.20869091 0.14226161 0.10245862 0.23735245
000110 b7 5e a1 3e 03 9c 7f 3e 40 da d0 3d 7d 40 13 3e
       0.31517574 0.24961857 0.10197878 0.14380069
000120 36 65 76 be 99 c0 9b be 36 c7 97 bc 4c 2d 33 be
       -0.24062046 -0.30420378 -0.018527608 -0.17497748
000130 11 eb 58 be 04 6d c4 bd 89 7f aa bd 85 2a 88 3c
       -0.2118342 -0.095911056 -0.08325107 0.016621837
000140 7a 87 05 3a 02 90 96 3d 68 8d 1e 3b 9e 2f b4 bb
       0.0005093735 0.07351686 0.0024193171 -0.0054988405
000150 ff 82 b8 3d 94 82 df 39 2b 02 92 bb 29 45 19 bd
       0.090093605 0.00042631163 -0.004455825 -0.037419472
000160 98 b6 29 bc 21 c8 10 bd 64 1c 28 be 00 6c ec bd
       -0.010358475 -0.035347108 -0.1641708 -0.11544037
000170 c1 92 81 be 4e dd 34 be fd 14 70 be f4 e0 68 bd
       -0.25307277 -0.17662546 -0.23445506 -0.056855157
000180 59 40 46 be d5 be 4c bd 41 af 19 3c b8 d2 88 bd
       -0.19360484 -0.04998668 0.009380163 -0.066808164
000190 a7 09 0b bd 89 7f e9 bd 5c b4 39 be 8f cc 09 be
       -0.033944752 -0.114012785 -0.18135208 -0.13456939
0001a0 88 66 c7 bd 93 6b fd bb 0f f5 57 bc 9b 79 e0 bd
       -0.09736353 -0.007733771 -0.013180985 -0.109606944
0001b0 eb e0 9d be 93 46 a5 be a8 24 4b be 5e ff 78 be
       -0.3083566 -0.32280406 -0.19838202 -0.24316165
0001c0 a9 c8 db be 30 13 c6 be 3d 8c c1 be 1e 1d 8b be
       -0.4292653 -0.38686514 -0.37802306 -0.27170652
0001d0 b1 6e df be 22 d2 7b 3d d2 4f 78 bd 59 11 26 bd
       -0.43639138 0.061479695 -0.060622998 -0.040543888
0001e0 f8 34 f9 3d cd 25 25 3d f2 5d cb 3c 70 f0 cb 3d
       0.12168306 0.040319253 0.02482507 0.09957969
0001f0 38 28 72 bd 7a d3 a2 3c 69 b3 88 bd b4 68 a1 3d
       -0.059120387 0.01987623 -0.06674845 0.07881299
000200 50 ff 3b 3c 5c 7b 4d 3d 37 ab 19 3c d8 15 52 3d
       0.011474445 0.050166473 0.0093792 0.051290363
000210 0a e4 13 3e 92 f3 15 3e 31 6d 8f 3d ae 0f 92 bd
       0.14442459 0.14643696 0.070032485 -0.07131897
000220 5f 5b 00 be 8e b0 8e be f5 aa 3f be 7b d8 60 be
       -0.12534855 -0.27869076 -0.18717559 -0.21957581
000230 21 43 2c bd e0 43 1d 3d e3 24 8c bd e4 a1 42 be
       -0.042056207 0.03839481 -0.06842973 -0.19007069
000240 6a f4 e7 3d c7 8d 7a 3e 72 17 44 3e d4 9a b3 3d
       0.11325915 0.24468146 0.19149569 0.087697655
000250 8b 79 88 3e 40 f1 1b 3d f4 4e b0 bd 1a 7d 86 3d
       0.2665523 0.03807187 -0.08608809 0.0656683
000260 c6 1a b1 3d 1d cd 92 3d 51 69 c3 3d ce 73 46 3c
       0.08647685 0.071680285 0.09541572 0.012112571
000270 8d 8b a2 3d 81 e5 ff bc 61 cc b9 3d f6 2c b8 bd
       0.079367734 -0.031237366 0.09072185 -0.089929506
000280 f1 d6 b3 3d d7 21 5a bc 37 a9 aa be 56 97 c7 be
       0.08781231 -0.013313732 -0.33332226 -0.38982648
000290 88 9b 9d be 3b 10 a7 be e5 ea bc be 6b e3 62 be
       -0.30782723 -0.3262957 -0.3689796 -0.22157066
0002a0 a9 29 7a be dd 8f bd be f4 d1 92 be 17 1b 74 bd
       -0.24429955 -0.3702382 -0.28675807 -0.059596147
0002b0 da 91 4e be 80 22 59 be 82 67 26 3d cc 20 2f be
       -0.20172825 -0.21204567 0.040626056 -0.17102355
0002c0 d8 ab 6a be 39 42 00 be e9 f8 49 be ca 63 cb bd
       -0.22917116 -0.12525262 -0.19723858 -0.09931143
0002d0 6d 6d d0 3c c6 25 6a bd 26 bc a8 3d 65 e3 18 3e
       0.025442803 -0.05716493 0.082390115 0.14930494
0002e0 fe aa a3 bd 0a 57 da bd b5 1b 31 3d c0 69 d0 bc
       -0.079915985 -0.10661133 0.043239314 -0.02544105
0002f0 7d 74 1e 3e 74 85 22 bc 2d 45 e1 3c 15 a3 c7 bd
       0.15474124 -0.009919513 0.027498806 -0.09747902
000300 ba 2e 41 3d 61 4f ba 3d 62 ac b8 bd 80 e2 47 3d
       0.047163703 0.090971716 -0.090172544 0.04879999
000310 2e 23 34 bd 1d 52 cc 3d 6d 7f a3 3d ce 5f ee bc
       -0.043978862 0.09976599 0.07983289 -0.029098418
000320 13 5e 15 bd 99 ca f5 3d 52 2d f0 3d fe 5e cb 3b
       -0.03646667 0.12001533 0.11727394 0.0062063923
000330 53 fc 2f bd ed 62 fc bd b8 b3 8d 3b fa 66 bd 3e
       -0.042965245 -0.12323556 0.0043244027 0.36992627
000340 7f b3 11 3e 58 ad a7 3e 23 de 70 3e b3 8a 80 3e
       0.14228629 0.32749438 0.23522238 0.2510582
000350 03 74 9e 3e 1b 45 be 3e 10 65 81 3e 2f 64 29 3e
       0.30947885 0.37162098 0.25272417 0.16542123
000360 0d 53 9d 3e 1f 96 42 3e f7 b2 d5 3c a2 a4 b3 3e
       0.30727425 0.19002579 0.026086314 0.35086542
000370 5a 5f 65 3e 74 c7 9f 3d c7 5f 92 3e 82 5b 45 3e
       0.22399655 0.078017145 0.28588697 0.19273189
000380 8c f4 6f 3d f2 b4 96 bc 43 1c d3 3c 54 1e 24 3d
       0.058582827 -0.018396828 0.025770312 0.040067986
000390 7f fe a4 3d e3 4e e6 bd 00 d4 26 bc 71 92 26 3d
       0.08056354 -0.11245515 -0.010182381 0.040667
0003a0 4e a9 bc 3c 21 a2 e8 3d b4 55 23 3d c9 2e bf bd
       0.02302995 0.11359049 0.039876655 -0.093350954
0003b0 0c 8d 2a bd c5 61 df bc d3 7a 16 bd c8 44 a3 3d
       -0.04163842 -0.0272683 -0.036738228 0.07972103
0003c0 21 9b 06 3d ef be 0b bd 68 84 21 be 3c 22 e2 bd
       0.032862786 -0.034117635 -0.15773165 -0.11041686
0003d0 c5 93 a8 bd ad 66 8e 3c 5c d5 c9 bb a4 c5 7a 3d
       -0.0823131 0.017382944 -0.0061594676 0.06122364
0003e0 d2 29 5d 3c c8 22 d2 bd 86 c8 ac 3d 3c 8f d5 3d
       0.01349874 -0.1026054 0.08436684 0.104277104
0003f0 d1 33 29 be aa ad ce bc a8 d4 8b 3c 22 84 cc bd
       -0.16523673 -0.025229294 0.017069176 -0.0998614

main.3.bias f4 [4]
000000 48 12 94 3c 09 29 1c 3d fd e9 7e 3d 7d cc 56 3c
       0.018075123 0.03812507 0.062234867 0.013110277

main.7.weight f4 [128, 324]
000000 0d fc ce bb dc fa 73 3c 35 47 57 bd 50 de 35 3b
       -0.006316668 0.0148913525 -0.052558143 0.0027750917
000010 db c9 f3 3c c8 09 e1 b9 f0 04 b3 bd 63 30 e8 bc
       0.029759338 -0.00042922632 -0.08741176 -0.028343385
000020 25 f5 15 3d e0 ea 7c 3b 0d 60 8e bd 0b cb 1a bc
       0.03661074 0.0038592145 -0.06951914 -0.009447823
000030 5e 20 1f bc 36 a5 d4 3c 55 3e e3 bc 79 88 75 bd
       -0.009712307 0.025957685 -0.027739683 -0.059944604
000040 88 2e 15 3c 06 b3 ca bc 60 c3 0b bd 49 59 33 bd
       0.009105332 -0.024743568 -0.03412187 -0.04378632
000050 71 bb 53 3c 21 50 b7 bc 85 32 b1 bd 93 3b 96 bd
       0.0129231075 -0.022377076 -0.08652214 -0.07335582
000060 39 28 a9 bd 2a 66 ba bc 3e dc 81 bc 30 50 38 3d
       -0.08259625 -0.022753794 -0.01585209 0.044998348
000070 65 53 1a bc 19 13 94 3c e9 a7 71 3c db 05 b5 3c
       -0.009419297 0.018075513 0.014749506 0.022097519
000080 66 70 61 bb c8 f0 77 3b 70 0c 32 bb b2 37 38 bc
       -0.003439927 0.0037832726 -0.0027168058 -0.011243748
000090 ad 4a 17 3d cf b1 a1 3c 2e 70 71 3c 33 fd 0c bd
       0.03693645 0.019738106 0.014736218 -0.034421157
0000a0 16 6e 96 bb 38 37 0f bd 1f fd 7b bd 45 81 c3 bc
       -0.00459076 -0.03496477 -0.061520692 -0.023865351
0000b0 d2 f0 a5 bd a2 07 2b 3c 00 1e 06 bc 12 45 7e bd
       -0.081025735 0.0104388315 -0.0081858635 -0.06207759
0000c0 65 f8 1f bd 2f 0f 82 bd ed 1f 93 ba 08 12 48 bd
       -0.039055247 -0.06350552 -0.0011224725 -0.04884532
0000d0 1e 03 b6 3c d5 39 e6 bc ce 07 85 bc 41 cc 46 3c
       0.022218283 -0.028103748 -0.016239073 0.012133659
0000e0 40 01 0a 3d 11 61 1a bd 5b ae 1c 3d 58 fd 99 bd
       0.0336926 -0.037690226 0.038252216 -0.075190246
0000f0 4a 5f 1d 3b c1 96 24 bc 4a 5e da bc 3b 48 7b bc
       0.0024013096 -0.010045708 -0.026656289 -0.015337045
000100 78 6b 68 bd ec 90 ac 3c 33 d2 9b 3b 4e 64 f7 bc
       -0.056743115 0.021065198 0.0047552823 -0.030199196
000110 31 59 02 bd ec 3e 63 bd fc 09 f2 bc f1 d8 f0 3b
       -0.03182334 -0.05547993 -0.029545777 0.00735008
000120 52 52 8d bd 3a 25 f3 3c fc ab 65 3c dd f7 ad 3c
       -0.06900467 0.029680837 0.014018055 0.021236354
000130 a2 18 cc bc dc 03 86 bd 39 81 9a bd ef 7c d0 bd
       -0.02491409 -0.06543705 -0.075441785 -0.10180079
000140 53 91 87 bd f8 98 3e bd 0a 7a 1d 3d 93 15 55 bc
       -0.06619515 -0.0465326 0.038446464 -0.013005632
000150 6b 92 60 bd f4 b2 c5 3c b3 33 b2 bc 68 e1 1b bd
       -0.054827135 0.024133183 -0.021753168 -0.03805676
000160 04 aa 8c 3c af db 2a bd 97 8e 53 bc a6 ad 9d bc
       0.017170914 -0.041713413 -0.012912414 -0.019247841
000170 73 ee 3e bd 64 c7 7e bd 97 88 34 3c 05 6b 1f 3c
       -0.04661412 -0.062201872 0.011018894 0.009730105
000180 f0 10 e6 3c 01 a8 a9 bc 3b ed 61 bd 1c a7 9c 3c
       0.028084248 -0.020709993 -0.05515788 0.019122653
000190 a9 aa 97 bd a4 4c 31 bd 0b 4a 65 bc 4f d2 cb 3c
       -0.07405598 -0.04328598 -0.013994704 0.024880556
0001a0 16 73 8e bc 4b a6 be bb 4f 97 5a bd 39 9d 10 bc
       -0.017388862 -0.0058181635 -0.053366955 -0.008826547
0001b0 e2 1e 02 3c 19 e3 77 bd a4 93 4c 3b 86 77 1a bc
       0.007941933 -0.06051931 0.003121593 -0.009427911
0001c0 11 02 07 bc 08 22 cc bc 9b 94 2b bd 67 28 27 3c
       -0.008240239 -0.024918571 -0.041889768 0.010202504
0001d0 a3 75 9d bd f7 03 88 3c e3 84 09 bd 2f 47 91 bd
       -0.07688453 0.016603453 -0.033573996 -0.07093655
0001e0 2d f2 42 bd 82 24 88 bd 92 ca c1 bc ee 34 89 bc
       -0.047594238 -0.06647588 -0.023656163 -0.016748872
0001f0 20 10 44 bd a8 f0 e3 3a 3a f8 04 3d 83 6a 8d bc
       -0.04786694 0.0017390447 0.03246329 -0.017262703
000200 09 4a 2d bd cc d0 76 bd 6f 28 df 3c 97 c8 82 bb
       -0.042306934 -0.060257718 0.02724096 -0.0039911973
000210 30 81 c1 bd c7 aa 77 bd bf 35 36 bd 2b 85 02 bc
       -0.09448469 -0.0604656 -0.04448485 -0.00796632
000220 65 80 fc 3b 97 eb 43 bd a8 f7 40 3c 31 52 25 bd
       0.0077057355 -0.047832098 0.011777796 -0.040361587
000230 ce 0b e2 ba b4 7a 47 bd aa 80 a3 bd 28 e4 e5 3c
       -0.001724595 -0.048701003 -0.07983525 0.028062895
000240 4a 04 85 3c fd d0 7d bd d3 72 9f bd 52 47 0b 3c
       0.016237397 -0.061966885 -0.07785573 0.008500891
000250 e6 e4 16 bc 4b a5 c7 3b 23 29 f1 bc 79 76 82 bd
       -0.009209847 0.0060927025 -0.02943856 -0.06370253
000260 0a 07 8f bd 0f 64 fd 3b ff 58 fa bc 4c 9f 24 bc
       -0.069837645 0.007732875 -0.030560015 -0.010047745
000270 05 71 ba 3c f8 64 7f bb 1c e8 22 bd 85 38 04 bd
       0.02275897 -0.0038970094 -0.039772138 -0.032280464
000280 52 dc 91 bd 4a 0e 9f 3c 17 32 99 bc 20 6a 7a bc
       -0.07122101 0.019415993 -0.018700643 -0.015284091
000290 65 c2 3c bd 15 e3 5c bd 37 8d 50 bd 78 8b 3d bd
       -0.046083827 -0.0539275 -0.050915923 -0.046275586
0002a0 44 4f 2e 3c 92 2d 62 bd e2 0f 20 3c ad b8 36 bd
       0.010639016 -0.05521924 0.009769412 -0.044609714
0002b0 10 7d 6a bd 33 ae f6 3c cc b8 1b bc f7 2e 51 bd
       -0.057248175 0.030112362 -0.009504508 -0.05107018
0002c0 97 6d 10 bd e8 27 5b bd 5d b3 c1 3b 44 72 22 3c
       -0.035260763 -0.053504854 0.0059112743 0.009914938
0002d0 40 33 a5 bc 5f 3f 66 bd d5 54 c0 3c 33 f2 57 bd
       -0.02016604 -0.05621278 0.023477951 -0.052721214
0002e0 85 e0 79 3c b0 20 7b bc 6b 38 81 3b 8b f0 c0 3c
       0.0152512835 -0.0153276175 0.003943493 0.0235522
0002f0 1a 1b 2d 3d 34 d5 11 bd 51 04 3b bd fa e5 29 3c
       0.042262174 -0.035603717 -0.045658413 0.010369772
000300 5e f6 d5 ba e0 69 ff ba 5a cf 27 bd 30 e0 ac 3c
       -0.0016324033 -0.0019486509 -0.04096923 0.021102995
000310 7a ce a2 3c 0b d1 90 bb 7d cc 75 3d 32 f2 24 3d
       0.019873846 -0.004419451 0.06000947 0.040270038
000320 dc 44 1c bd 3e a7 1f 3d 20 5c 92 bc fc 6c dd 3c
       -0.038151607 0.038977854 -0.017866194 0.027029507
000330 10 42 82 3b 61 cd 0e bd 90 3b 25 bd c7 e9 72 3d
       0.0039751604 -0.034863833 -0.040340006 0.05930498
000340 38 9d 9e bc b9 fc 1f 3c b2 cd 45 bc f7 2f 20 3d
       -0.019362077 0.009764844 -0.012072967 0.039108243
000350 71 43 84 bc a0 e4 9c 3c c4 69 ae 39 1c 17 86 3c
       -0.01614544 0.019151986 0.00033266668 0.016368441
000360 b9 09 c2 bc 09 fe 33 bd 02 b4 b2 bc 96 79 32 bc
       -0.023686277 -0.04394344 -0.02181435 -0.010893246
000370 a1 1d c6 3b f3 bb 96 3c 4c b7 44 3d ec 39 b7 bc
       0.0060460125 0.018400168 0.048026368 -0.022366486
000380 6e b0 8d 3a 25 a9 2d 3c 79 ea 9d bc 40 ba 60 bd
       0.0010810026 0.010599409 -0.019276844 -0.05486512
000390 77 c9 56 bd 77 ae 4a bd 22 ce 49 bd 13 ec 9a 3c
       -0.052438226 -0.04948279 -0.04926885 0.018911397
0003a0 df 35 8a ba f0 5d 64 bc e3 b3 75 bd 62 b0 9f 39
       -0.0010544619 -0.013938412 -0.059986006 0.0003045826
0003b0 ce 3c a9 bc 89 45 28 bc c7 c2 76 3c de cc 48 bd
       -0.020658877 -0.010270485 0.015061087 -0.0490235
0003c0 b1 1c 1b 3d 66 c7 71 3b e6 55 1d bd 1f 79 7b 3d
       0.03786916 0.0036892532 -0.038411997 0.061394807
0003d0 10 31 26 bd d4 71 f2 bb 21 8a bd bd d2 cf 76 3d
       -0.040574133 -0.0073988233 -0.092548616 0.060256787
0003e0 54 56 27 bd cb 1a 3c bd fd 16 a2 bb 1f 32 9e 3c
       -0.040853813 -0.04592399 -0.004946588 0.019311009
0003f0 ef b6 55 bd 1d f3 a2 bc fe 6b 62 3d b5 54 49 3c
       -0.052176412 -0.019891316 0.05527877 0.012288262

main.7.bias f4 [128]
000000 d5 6b 21 bc 8b 3b 38 3d 53 dd af bd 88 0f 84 3b
       -0.009852369 0.04497866 -0.08587136 0.004030172
000010 91 46 fa bb 07 02 8f bd 16 6f 0e 3d 8e b1 15 3d
       -0.0076378067 -0.069828086 0.03477391 0.036546282
000020 81 0a 05 3d 6b 6c 51 bc 83 c5 af 3d fc 03 26 bd
       0.03248072 -0.0127821965 0.08582594 -0.040531144
000030 25 49 06 bc 17 63 95 3d 62 4d 23 3c 5c ec a2 3b
       -0.00819615 0.072942905 0.00996718 0.004972024
000040 5f 0f 56 3c 47 07 e1 bc 37 d8 47 3a e1 c6 23 3d
       0.013065188 -0.02746929 0.0007623466 0.039984588
000050 16 1e 20 bc ff 38 e6 3d 62 a1 ce 3d cf ca 5b 3d
       -0.009772798 0.1124134 0.10089375 0.05366021
000060 e6 02 ea bc f4 ca 9f bd 0a 19 ce 3d e9 f0 ce bc
       -0.028565835 -0.07802382 0.100633696 -0.02526136
000070 90 11 49 3d 68 1a 37 3c ed c0 e4 bc 28 f0 94 bd
       0.049089015 0.011175729 -0.027924025 -0.07272369
000080 2b 3d 83 3d 4a f8 c0 bc 96 e7 7a bd 5d 55 55 bc
       0.06408151 -0.023555893 -0.061256014 -0.0130208405
000090 79 bb 1b 3e f5 1d 46 3c b0 8d df 3d 2e c3 f9 3c
       0.15208234 0.012092103 0.109156966 0.030488577
0000a0 10 99 55 bd 3e 35 d5 3d 8f cf d9 bc 7b 4d 5f bd
       -0.052147925 0.10410546 -0.02658823 -0.05451725
0000b0 ce 47 ff 3c f5 34 ed 3d 9d 35 8c 3d d3 12 6d 3d
       0.031162169 0.115823664 0.068461634 0.05787928
0000c0 25 d8 b3 3b 77 59 81 3d cf ca 89 bd e2 32 e9 3d
       0.005488413 0.06315892 -0.06728136 0.11386658
0000d0 cf 4a 93 3c 2f b7 bc 3d 52 b8 ab 3d c4 ca 5b bd
       0.017980007 0.09214627 0.08384766 -0.05366017
0000e0 79 95 ce 3d f4 fa 2a bd bb 07 db 3d 10 01 2a 3d
       0.100871034 -0.041743234 0.10694834 0.04150492
0000f0 ad 16 e6 bc 60 3a df 3d 85 b6 3c 3d b9 5b d7 bc
       -0.028086985 0.10899806 0.0460725 -0.026288854
000100 6d d1 8e bb f1 47 88 bc 30 02 09 bc 2f 7c 20 bd
       -0.0043584616 -0.016635867 -0.008362338 -0.03918093
000110 05 df 1d bd 43 b0 bc 3c 71 27 00 bd 46 46 7b bc
       -0.038542766 0.023033267 -0.031287614 -0.015336579
000120 34 f3 28 bd df 14 9c 3d 20 4e eb bc 8c c6 ec 3d
       -0.04124756 0.07621168 -0.028723776 0.11561307
000130 ee 1e 06 bd b6 90 83 bc 99 73 2f bd 3f 48 8a bd
       -0.03274434 -0.016060214 -0.042834852 -0.06752061
000140 66 05 0c bd 09 02 ca 3d d2 02 a2 3d e3 44 12 3e
       -0.034184836 0.098636694 0.07910694 0.1428409
000150 89 bd 8d bd d6 af 37 3d 85 61 51 3d 48 a0 b6 bc
       -0.069209166 0.044845425 0.051118392 -0.022293225
000160 fa b3 b0 bc b9 0b ce 3d c0 a1 99 bc ee 02 97 bd
       -0.021570195 0.1006083 -0.018753886 -0.07373606
000170 f8 ce 24 bd 2d 3f d9 3c 2d b7 9d 3d 1b c2 c8 bc
       -0.040236443 0.026519382 0.07700954 -0.02450662
000180 b8 27 19 bb 41 ca 97 3d 2b 11 d5 bb 4c e8 2a 3d
       -0.0023369621 0.07411624 -0.0065022907 0.04172544
000190 4b e3 0f 3d 3c c1 b6 bd 3e a9 00 bb d9 c7 ca 3d
       0.035128873 -0.08923575 -0.0019632126 0.09901399
0001a0 11 87 a2 3d d2 74 32 3d 58 62 e4 3d c6 8e 73 bd
       0.07935918 0.04356844 0.1115157 -0.05946233
0001b0 cf d4 c0 3c 43 c8 51 bd 99 7b 45 3d 6f d3 85 3c
       0.023538975 -0.051216375 0.048213575 0.016336171
0001c0 18 f6 0c bd 9a 74 07 3c 06 82 2d 3c 1c 71 41 bd
       -0.03441438 0.008267546 0.010590082 -0.04722701
0001d0 9e 08 12 3d 05 a9 55 3c 64 5f 34 3d e7 d3 02 3d
       0.03565275 0.013040786 0.044036284 0.031940367
0001e0 0b 8f 1a bd 9c bc 4c 3c 98 31 de 3c 23 e3 87 bd
       -0.037734073 0.01249614 0.027123258 -0.0663512
0001f0 3b 1e 8d bd 0e e4 19 ba 84 8d 3b 3a 31 49 c4 3d
       -0.06890532 -0.00058704696 0.00071545714 0.09584273

main.9.weight f4 [1, 128]
000000 3a cf a8 bd b8 db 3e be 5b d4 c4 3c 7f 2b a7 3e
       -0.0824265 -0.18638504 0.02402704 0.32650372
000010 03 66 84 3d d9 9f 16 3d f5 c8 4e 3e 71 9d c1 3e
       0.0646477 0.036773536 0.20193847 0.3781543
000020 fa a3 cd be de e7 29 bd 35 9b 55 3e c8 1d f7 bd
       -0.40164167 -0.04148089 0.20859988 -0.12066227
000030 f4 3b 1b be d5 56 31 3e fb 45 93 3d ef 8d d1 bd
       -0.15159589 0.1731828 0.07191082 -0.1023215
000040 af 15 a0 3d 71 03 8f bd b0 ca 00 bf c5 96 b5 3d
       0.07816636 -0.06983078 -0.50309277 0.08866648
000050 97 04 0b 3e 88 59 38 be f0 26 10 3e be d4 23 3e
       0.1357597 -0.18002903 0.14077353 0.15999123
000060 7b 5d 34 3c a6 06 eb ba 5f e1 62 3e 35 76 4d be
       0.011008616 -0.0017931059 0.22156285 -0.20064624
000070 59 88 52 3e ac 1b 7d be 11 64 78 3e d5 e4 49 bb
       0.20559825 -0.24717587 0.24256922 -0.003080656
000080 29 8c c7 bd 6b 89 91 3e 5f f3 ec bc 82 9e dd be
       -0.0974353 0.28425154 -0.028924642 -0.43284994
000090 4f 25 44 3e cd 15 74 3d 3c ba 33 3e 7f d4 41 3e
       0.19154857 0.059591103 0.17551512 0.18928717
0000a0 9c 24 9e be ac d3 25 3e 38 33 8b 3b e1 cc 32 be
       -0.30887306 0.16194028 0.004248049 -0.17460968
0000b0 b3 92 bf be df c9 35 3e 96 40 2f 3e 8a ab 50 3e
       -0.3741661 0.17752789 0.17114481 0.20377937
0000c0 61 a7 5b be 9a d4 40 3e 41 e9 95 3c b9 36 4f 3e
       -0.21450569 0.18831101 0.0182997 0.20235719
0000d0 43 e1 ca be 99 5b 1d 3e ee 44 38 3e 36 80 5f 3d
       -0.39624986 0.15366973 0.17995045 0.05456563
0000e0 1b b9 48 3e b4 0d 8d 3e d1 dd 39 3e 27 cd 24 3e
       0.19601862 0.27549517 0.18151022 0.16093884
0000f0 64 ef cb bb 8a 93 50 3e 07 09 87 be 04 c9 b5 bd
       -0.006223606 0.20368782 -0.26374075 -0.08876231
000100 9f 52 de 3d ce 46 d4 bd b4 58 d1 ba 6f 66 9c be
       0.108556025 -0.103650674 -0.001597187 -0.305469
000110 d9 a4 94 3d ad 9e 4e be d5 6c 50 bc 55 00 a0 be
       0.07258005 -0.20177718 -0.01272126 -0.31250253
000120 d3 52 81 bd 9c 74 39 3e f7 c5 13 b9 3b 01 64 3e
       -0.063146256 0.18110889 -0.0001409276 0.22266094
000130 ca df 8e 3d 77 5c 97 be 50 e2 5f 3d 98 0f ca bd
       0.06976278 -0.29562733 0.054659188 -0.098662555
000140 7a b2 a3 bc 87 a2 21 3e 72 41 3e 3e 23 65 3a 3e
       -0.019982565 0.15784656 0.18579653 0.18202643
000150 a6 0a 99 3e d3 a7 a7 be 24 5b 3c 3e 5b e5 99 3e
       0.29890937 -0.32745227 0.18394142 0.30057797
000160 c3 86 50 3d 38 c2 59 3e 9d 2a 04 3d d7 cb ad 3e
       0.05090977 0.21265495 0.0322672 0.3394458
000170 7e 6f d3 3b 8f 06 59 3d df 73 61 3e 89 12 6d bd
       0.0064525 0.05298477 0.22016858 -0.057879005
000180 72 22 e8 3d 60 d4 31 3e a8 61 c4 bd 64 fd 6e be
       0.11334695 0.17366171 -0.09588939 -0.23338848
000190 6a fe 8d be 14 07 b5 3d 7d 8a b7 bd 20 d3 28 3e
       -0.27733165 0.08839241 -0.089619614 0.16486788
0001a0 08 91 39 3e 1f bf 2a be cc ca 4e 3e 04 28 2d 3c
       0.18121731 -0.1667447 0.20194548 0.0105686225
0001b0 f4 ad 9a bd e0 cf 21 be 10 e0 46 be 02 1d 7a be
       -0.0755271 -0.15801954 -0.1942141 -0.24425128
0001c0 94 5e e4 be 38 b7 33 3c 61 09 1f bd 4c 0d 10 be
       -0.44603407 0.010968976 -0.038827304 -0.14067572
0001d0 02 87 a4 bd d1 29 29 be 90 9f 3f 3e ef b7 3b bd
       -0.08033563 -0.16519858 0.18713212 -0.04582971
0001e0 fd c2 be be 2c a5 ff bd cb 60 05 be a1 50 d0 bb
       -0.3725814 -0.12482676 -0.13025205 -0.006357268
0001f0 bb 16 17 bc c5 c9 c2 be 41 cf a0 be 20 9f 26 3e
       -0.009221728 -0.38044563 -0.31408122 0.16271639
