chapters/models/bitmoji_cnn.pt (torch, 173567 bytes, 7 tensors)

main.0.weight f4 [8, 3, 5, 5]
000000 6b 3e 15 be ae 18 23 bd de 8e 16 3c 2c 34 bc ba
       -0.14574592 -0.03981846 0.009189336 -0.001435881
000010 af 2b 0f bd d7 3f f3 bd 24 d7 cc 3b e2 92 28 be
       -0.03495377 -0.11877411 0.0062512327 -0.16462281
000020 d2 f8 15 be 25 76 64 bd 6e 81 14 be ee 42 0a bd
       -0.14645699 -0.055776734 -0.14502499 -0.033755235
000030 0d 61 de bd ce 87 fd 3c da e9 30 be 8c 60 e5 3a
       -0.10858355 0.030948546 -0.17276707 0.0017500087
000040 fa 14 71 3d 9e 87 cf 3d 38 d9 31 3d 96 98 d4 bd
       0.058857895 0.10133289 0.043420047 -0.10380666
000050 e7 ad c2 bd 5d b1 b6 bc 2b 99 c7 bd 7f 36 2b bd
       -0.095058255 -0.02230137 -0.09746011 -0.04180002
000060 61 38 3e 3d 64 a2 bb 3d 2f c9 39 3d 16 6d 86 3d
       0.046440486 0.09161833 0.04535788 0.06563775
000070 1f 54 ec 3c d9 fe 7c bd 32 05 e0 3c 30 fb d2 3d
       0.028848706 -0.06176648 0.027346227 0.103018165
000080 59 4b 03 3e 2d 56 e0 bc de e0 9a 3d 66 ef 98 3d
       0.12821712 -0.027384842 0.07562421 0.07467537
000090 6e 64 38 bd 0a ec 62 3d 1f 1a e5 3d 47 1c e6 bd
       -0.045017652 0.055400886 0.11186623 -0.11235862
0000a0 1a e5 95 bc 0f db d8 3c af e5 39 3d 09 4e 8e bd
       -0.01829772 0.026471643 0.04538506 -0.06948478
0000b0 48 a0 5f bd 11 f6 b1 3c f0 0b 81 3c 47 fa 09 3e
       -0.054596215 0.021723779 0.015752763 0.1347438
0000c0 99 4b 9c 3d 3b 3e 01 bd 9d 23 b0 bd 8a 40 0e 3e
       0.076316066 -0.03155349 -0.08600543 0.13891807
0000d0 6e c3 1f 3e f3 c8 06 3e 77 4e 87 3d 9a 1f a0 bc
       0.15601894 0.13162594 0.06606763 -0.019546319
0000e0 a5 12 23 3e a1 5f 12 3e d7 a1 c1 3d b3 b6 6a 3d
       0.15925081 0.14294292 0.094546966 0.05730314
0000f0 f9 0c e1 3d 2b 83 f2 3d 18 15 5c 3e 95 c3 ad 3d
       0.109888025 0.118414246 0.21492422 0.0848457
000100 87 b1 30 3e 2d c8 86 bc e3 9c 16 3d f0 17 88 3c
       0.17255221 -0.016452873 0.036770713 0.016612977
000110 24 54 21 3e c0 c1 17 3e 45 53 d4 3d cb 95 9f bb
       0.15754753 0.14820004 0.10367445 -0.0048701516
000120 dc 2b d3 3d f5 f9 5c 3d 18 d3 d3 3d 72 22 a1 3c
       0.103111 0.053949315 0.10342997 0.019669745
000130 b2 f1 07 3d 9a 93 19 3e b4 3d a7 bd b4 e5 79 3d
       0.033189483 0.14997712 -0.08166066 0.061010078
000140 91 3b ac 3c 31 d6 94 bd a8 15 c7 3d 74 d3 b9 bd
       0.021024497 -0.07267416 0.097209275 -0.090735346
000150 e0 e3 c4 3d b5 22 37 3d b5 02 b9 3d f6 ce 93 3d
       0.09613776 0.044710834 0.090337195 0.07217209
000160 16 49 29 3d 89 7a db 3c b2 e7 c9 bc 5d 55 ca 3d
       0.041329466 0.026791828 -0.024646614 0.09879563
000170 3b 95 8b 3d f0 82 6d bd 91 91 55 bc 04 19 c5 3d
       0.06815573 -0.0579862 -0.013035194 0.09623912
000180 95 87 ed bc 35 5f cc 3d cf 8c 0b bc 88 de 03 3d
       -0.028995315 0.09979097 -0.008517458 0.032194644
000190 f0 ba d0 3d 1b 14 f7 3c 95 16 46 bd 01 50 15 be
       0.101919055 0.030160954 -0.04836138 -0.145813
0001a0 2c dc f6 bd 83 76 c0 3d ef 38 f6 bc 5e 73 59 3b
       -0.12053713 0.09397604 -0.030056445 0.0033180336
0001b0 98 1c d9 bd c4 9f 10 bc a4 a8 cd 3d 9e 63 c9 bd
       -0.10601157 -0.008827154 0.10041931 -0.098334536
0001c0 a0 a3 7c 3c 14 65 99 3d 27 a3 22 3b 57 c8 e5 bc
       0.015419871 0.07489982 0.0024816485 -0.028049631
0001d0 75 5b aa 3d 54 b0 32 3d c2 9c 56 3d 0e 63 a7 bd
       0.08318225 0.04362519 0.05239559 -0.0817319
0001e0 14 d6 ed bb f5 4f 86 bc 4c 49 d7 bd 82 07 7d 3d
       -0.007258186 -0.016395548 -0.10512027 0.061774738
0001f0 6f cf b6 b8 b6 a8 e8 bb 3c 75 93 bd 2c 89 12 be
       -8.717074e-05 -0.00710019 -0.07200095 -0.1431014
000200 64 da 0a be 15 f9 2c be 6a 7d 47 3c 67 96 d9 bd
       -0.13559872 -0.16891892 0.012175897 -0.1062439
000210 49 4f 8e bc b1 f0 32 be ba 6a a1 bd be 74 a3 3c
       -0.01737179 -0.17474629 -0.078816846 0.019953128
000220 6a 13 b2 3d ee 8a e7 bd 02 cb 3a bc d6 8e aa bd
       0.08695109 -0.113057956 -0.01140094 -0.08328025
000230 37 9a b7 bd bc 5f 02 bd 8b 6e 8d 3d 63 07 14 be
       -0.08964961 -0.03182958 0.0690585 -0.14455943
000240 91 2b 36 be fe ef 17 bd 93 a8 35 bc b5 a6 e9 3c
       -0.17790057 -0.03709411 -0.0110875545 0.028521875
000250 4e 93 e0 bb 4e 06 f6 bd f7 09 f6 bd 9f 4b 90 bb
       -0.0068534976 -0.12012921 -0.120136194 -0.004403546
000260 f2 43 07 3d a2 98 d7 3d 3f 83 d0 3b 4c eb f6 bd
       0.033023782 0.10527159 0.006363302 -0.12056598
000270 17 99 93 3d 03 47 70 bd b6 38 6d bd 4e 10 0c 3d
       0.07206934 -0.058661472 -0.057915412 0.034195237
000280 e9 25 c7 3d 38 67 e5 3c 52 57 9b bd 71 91 f0 3c
       0.09724028 0.02800332 -0.075850144 0.029366227
000290 bf 56 dd bc 70 2e 65 3d 57 a1 0d 3e a5 30 00 3e
       -0.027018903 0.05595249 0.13831078 0.12518556
0002a0 c5 3a bc 3c 11 25 0e 3e a0 24 6c 3d 7c f3 0a 3e
       0.022977242 0.13881327 0.057652116 0.13569444
0002b0 a2 a8 0d 3e 53 98 7c bd 10 75 a7 3d 61 c2 83 bd
       0.1383386 -0.061668705 0.08176625 -0.06433559
0002c0 e1 57 49 bc c4 df c0 3d 56 e7 f7 3c 63 13 97 3d
       -0.012289018 0.0941768 0.030261677 0.073767446
0002d0 2d 9a c5 bc e5 0e 82 3c 30 f2 d1 3c c7 98 cc 3d
       -0.024121368 0.015876243 0.02562818 0.099900775
0002e0 a2 0a 03 3e 53 21 e1 3d f7 a3 8c bd c7 01 0b 3e
       0.12797025 0.10992684 -0.06867211 0.13574897
0002f0 d3 32 8e 3d 11 98 04 3e 25 2c f9 3d c5 75 87 bc
       0.06943288 0.12948634 0.12166623 -0.01653565
000300 8b da 4a bc c9 56 a4 3c d3 be 6c bd 00 6e fe 3c
       -0.012381206 0.020060914 -0.05779917 0.031058311
000310 09 d6 8e 3c da 00 0a 3e 87 42 d7 bc f7 49 7d bd
       0.017436044 0.13476887 -0.02627684 -0.061838116
000320 2b 7d 9a bc 95 e1 08 be 1a e0 f8 bd 72 ba d6 3c
       -0.018858513 -0.13367303 -0.12152119 0.02621195
000330 18 3f 99 bd 2a a6 67 3d 65 09 af 3d c2 65 3a bd
       -0.07482737 0.05655495 0.08546714 -0.0455072
000340 07 6a 27 bd 6d 24 04 3d 34 85 b8 3c 21 56 ba 3d
       -0.0408726 0.0322613 0.022524454 0.09098459
000350 46 08 e9 3b 74 80 a8 bc f4 e0 32 bd 87 52 27 bd
       0.007111582 -0.020569064 -0.043671563 -0.04085019
000360 d8 77 15 3d 1c 82 99 3d 1d 21 c2 bd b2 b6 bf 3d
       0.036491245 0.074955195 -0.09478972 0.09361018
000370 8e 3c 42 3d 76 d7 a2 3d 83 fe 3a 3d 37 29 f4 3b
       0.04742103 0.07951252 0.045652878 0.0074512023
000380 6b c2 69 bc 02 c4 21 be 40 e7 75 be 30 0a c5 bd
       -0.014267544 -0.15797427 -0.24013996 -0.09621084
000390 7e 72 29 bd 7d 9e 81 3d be 45 73 be 55 4f 29 be
       -0.041368954 0.06329057 -0.23757073 -0.16534169
0003a0 0f f2 c4 bd c9 f2 99 3c b0 61 12 3d 52 04 70 be
       -0.096164815 0.018792527 0.035737693 -0.23439148
0003b0 4b 55 11 be 4d cb 0f bd 9c 7e a1 bc f6 fd 84 bc
       -0.14192693 -0.035105992 -0.019713692 -0.01623438
0003c0 fe e3 df bd 89 1c 0f 3d b2 06 bb bd 25 87 c6 3d
       -0.10932158 0.034939323 -0.091321364 0.096937455
0003d0 cf ee 9b bd c0 7c a6 bc 09 95 96 bc 8c bd 58 bd
       -0.076139085 -0.020323157 -0.018381612 -0.05291514
0003e0 72 09 8d bc 55 18 b5 3d 35 44 b5 bd 4d 71 ee bd
       -0.017216418 0.088425316 -0.088509 -0.11642704
0003f0 19 57 99 bd fc 69 c1 3d 2f 39 c6 3d cb 08 db bd
       -0.07487316 0.09444043 0.09678876 -0.106950365

main.0.bias f4 [8]
000000 bf 30 37 be 7c b8 36 3e 71 eb 82 bd 04 3e 0e 3e
       -0.17889689 0.17843813 -0.06392563 0.13890845
000010 66 d4 cb 3d 48 5d bb bd 32 59 62 bb a2 db 05 3e
       0.09952621 -0.09148651 -0.0034538028 0.13072065

main.3.weight f4 [4, 8, 3, 3]
000000 13 4c f2 bc b4 32 3d bd 14 dc e5 3c 42 88 aa bd
       -0.02957729 -0.046190932 0.028059043 -0.0832677
000010 2d 68 d7 bd 93 f2 bc bd 9e 85 a4 3c d5 fb e7 3c
       -0.10517917 -0.09225955 0.020083245 0.028318325
000020 4e d9 bb bb 0c af fc bd 12 3a b1 3b 44 b3 00 be
       -0.005732692 -0.12338075 0.005408534 -0.12568384
000030 16 c8 62 be 84 0b 90 bd f6 89 a7 be 10 d3 82 be
       -0.22146639 -0.070334464 -0.32722443 -0.25551653
000040 fd 85 2b be b8 aa 6e be bf 14 c1 3d 09 a9 bf 3d
       -0.16750331 -0.23307312 0.09427785 0.09358413
000050 9d 30 a2 3d 1d dc d4 3d b1 c8 b0 bd d9 1d 88 bd
       0.079194285 0.10393546 -0.08632029 -0.06646318
000060 08 bf 26 3c 77 83 f5 bd be 0f 0b be 34 a8 13 be
       0.010177381 -0.119879656 -0.13580224 -0.14419633
000070 8d 48 44 be 6a ca 15 3e 12 43 bd bd 2f 76 19 3c
       -0.19168301 0.14627996 -0.09241308 0.009366556
000080 a7 e2 c5 3d 43 71 e2 3c 6f bc e6 3b d5 b6 05 3e
       0.09662371 0.027641898 0.007041506 0.13058026
000090 90 96 e2 3b 35 f2 82 be 78 dc 24 be cd b8 4d be
       0.006914921 -0.25575414 -0.16099727 -0.20090027
0000a0 d7 44 49 be 25 67 85 be b2 00 9f be 91 03 8b be
       -0.19655167 -0.26055256 -0.31055218 -0.27151158
0000b0 7a 16 35 be e2 a4 6f 3d 1b 10 f9 3d 61 d1 1d 3e
       -0.17684355 0.058506854 0.12161275 0.15411903
0000c0 cb 67 11 bd 37 d4 04 3e 24 42 cc 3d 18 1e 0e bd
       -0.035499375 0.12971579 0.09973553 -0.03469667
0000d0 14 40 48 3d 89 f6 78 3d da b6 87 3d 5b 5b 4e bd
       0.048889235 0.06078199 0.06626673 -0.050380092
0000e0 6a 4d d0 bd 35 7e 0c bd 68 b0 ab 3d ff 26 c8 bd
       -0.101710156 -0.034300048 0.08383256 -0.09773063
0000f0 d9 a8 b7 3d 66 49 2f bd d3 46 da 3d ba fd 90 3d
       0.08967752 -0.042794608 0.1065804 0.070796445
000100 f2 24 d6 bc 4f 2f 0a 3d 2b 8c 8b bc 55 b4 05 bd
       -0.026140664 0.033736523 -0.01703461 -0.03264268
000110 0d a9 10 be f3 68 9e be d3 9a da bd 20 b4 3d be
       -0.14126988 -0.30939445 -0.106740616 -0.18525743
000120 b9 aa f4 bd ae db be bd 9b 29 f2 3d e4 75 20 be
       -0.11946625 -0.09319244 0.11824342 -0.15669972
000130 90 2d 83 3d 64 45 b9 bc 93 b8 d5 bd 16 0e 7c bd
       0.06405175 -0.022616096 -0.10435595 -0.06153687
000140 8e 29 89 3c 88 30 98 bd 32 23 98 bd 1c 12 11 be
       0.016743448 -0.074311316 -0.07428588 -0.14167064
000150 28 df 24 be 16 85 55 bc 6a d2 3b bd 54 17 21 bc
       -0.16100752 -0.013032218 -0.045854963 -0.009832222
000160 69 77 23 3c 17 c3 0f bd 03 2c a7 bd 88 f3 5f bd
       0.0099772 -0.03509816 -0.081626914 -0.05467561
000170 8d 13 96 3d e5 64 4d bd 69 4a a8 3d df 78 39 bc
       0.07327948 -0.05014505 0.082173176 -0.011320322
000180 69 e6 c3 bd 78 6f 82 3d 41 76 d7 bd 8a 26 3c 3e
       -0.095654316 0.06368917 -0.10520602 0.18374076
000190 1c 0a 43 3e c5 ef 28 3e ae 08 86 3e ff da 62 3e
       0.19046825 0.16497715 0.26178497 0.22153853
0001a0 2b 28 5c 3e 38 a2 86 3e 31 2b 8d 3e ca 2a 3b 3e
       0.21499698 0.26295638 0.27572015 0.18278041
0001b0 cc 98 fb 3d 45 72 a7 3d d6 04 f8 3d 36 76 89 3d
       0.12285003 0.08176092 0.121102974 0.06712
0001c0 e1 a7 f3 3d b4 13 3a bd f4 12 d5 bd 9b 58 87 bb
       0.11897255 -0.045428947 -0.10404006 -0.0041304356
0001d0 e6 d2 9b bc 78 8c 9f 3d 71 5e 37 3c 9d 9a b6 3d
       -0.019021463 0.07790464 0.01119195 0.08916209
0001e0 4a cc 6b 3d 98 ce 0a 3d 94 bb 5c 3d 3e e4 a2 bd
       0.057567872 0.03388843 0.053889826 -0.0795369
0001f0 1f b3 29 bd 62 03 5a 3c 60 4b 11 be 2a 00 3b 3c
       -0.04143059 0.013306471 -0.1418891 0.011413613
000200 52 bc d5 3d 2e 4f b2 3d 9f 8d c7 3d 53 a8 b1 3d
       0.1043631 0.087065086 0.09743809 0.086746834
000210 df 42 aa 3d 58 83 61 bd 0b 2b 86 bd 03 de 5c bc
       0.08313536 -0.0550569 -0.065511785 -0.013480666
000220 40 7f c5 3d 22 ab 0d 3e d6 0a 14 3e a1 a6 b3 3d
       0.09643412 0.13834813 0.14457259 0.08772016
000230 dd ed 2a 3c 58 9d d2 3c fe 3b 0e 3e e7 7d 18 3e
       0.010432688 0.025709793 0.13890073 0.14891778
000240 22 17 6e 3d c4 be 2a bd 2a 2c 5d bd 7e 34 4b 3d
       0.05812753 -0.041685835 -0.053997196 0.049610607
000250 e1 a4 a3 3d 48 ee 47 bc f7 30 91 bd b8 83 2b bd
       0.079904325 -0.012202807 -0.070894174 -0.041873664
000260 32 20 ef bd 9c 12 67 bd 54 f5 28 bd 1f 7f eb 3d
       -0.11676063 -0.05641423 -0.041249588 0.11498856
000270 50 cb fa bb 02 ac c0 bd 29 4e 97 3d d5 eb 97 3d
       -0.0076536313 -0.09407808 0.07387955 0.07418028
000280 00 68 06 bb 54 b8 f4 3c 2d 74 ee bd d0 c1 59 bc
       -0.0020508766 0.02987305 -0.116432525 -0.013290837
000290 ca f0 7c bd 10 f5 85 bc e3 57 ec bd a3 64 d6 3d
       -0.06175307 -0.016352206 -0.115402006 0.10468414
0002a0 e4 d1 e8 bc 6f 71 b0 3d 88 d2 da bd 4c 5d e8 bc
       -0.028420396 0.08615386 -0.10684687 -0.0283648
0002b0 b2 9a 58 3d 5c 7f ee 3c ae 37 9d bd dc e7 f3 bc
       0.052881904 0.029113464 -0.07676636 -0.029773645
0002c0 22 57 0a 3d 64 f9 cf 3c e4 d5 cd bc 88 b2 1a bc
       0.033774503 0.025387473 -0.025126405 -0.009441979
0002d0 0e 89 21 3d 06 b2 36 3d e0 72 81 bd dc 74 2a bd
       0.039437346 0.04460337 -0.06320739 -0.041615352
0002e0 64 e9 f7 bc 20 15 c7 bd 7e b2 94 bd 79 fd 98 3d
       -0.030262657 -0.09720826 -0.07260607 0.07470221
0002f0 d0 10 ff bb 59 c8 ce bd 61 c3 63 bd 9c 50 f7 bc
       -0.0077839866 -0.10096807 -0.05560625 -0.030189805
000300 fc 8b bc 3c 48 7c 5e bc de fd 81 bd e4 e1 99 bd
       0.023015969 -0.013579436 -0.063472494 -0.07513788
000310 42 3f d8 bd 98 08 2b bc 36 54 b0 bd b7 cd c3 3d
       -0.105589405 -0.010439061 -0.08609812 0.09560721
000320 88 ef a4 bd 13 3d 85 3d a4 42 be bd 23 33 88 3d
       -0.080534995 0.065057896 -0.092900544 0.066503786
000330 a8 38 c3 bd 7c 50 bc bc 01 88 a5 bd 3a f0 cd bd
       -0.09532291 -0.022987597 -0.08082581 -0.10055585
000340 8d ae 89 3d 02 06 5b 3d 1a 88 03 3d 13 75 be 3d
       0.06722746 0.053472526 0.03211222 0.09299674
000350 58 59 02 3c 90 5a ce 3b 8f 5e c8 bd 7e 78 4a bd
       0.0079558715 0.006297417 -0.097836606 -0.049431317
000360 6e a8 53 3c 5b 4e ab bd d7 a3 ca 3d 08 f0 97 bd
       0.012918575 -0.083645545 0.09894531 -0.07418829
000370 10 97 05 3d fc 57 a0 3d 20 f3 10 3d b0 ed 84 3c
       0.032614768 0.07829282 0.035388112 0.01622662
000380 d2 4a 77 bd 77 50 2d 3e b1 b1 2d bb d0 b3 47 be
       -0.06037409 0.16925226 -0.0026503617 -0.19502187
000390 0c 2a b7 bd 12 a7 50 bd 48 2e 80 be 9d 25 ee bd
       -0.08943567 -0.05094058 -0.2503531 -0.11628268
0003a0 e5 3c 9b be b6 b5 b4 be fe 9c 88 3c 90 2b 5d 3c
       -0.30319896 -0.35294884 0.016676422 0.013499156
0003b0 92 1c d3 3d 13 40 bf bd 3a 70 4e 3d 6a f8 73 3c
       0.10308184 -0.09338393 0.050399996 0.0148907695
0003c0 36 cc 95 3d 75 c9 45 bd 6a 6b 1a 3d 92 a6 5c be
       0.07314341 -0.048287828 0.037700094 -0.21547917
0003d0 7f c6 f8 bc 2d 87 0f be 29 4f 86 be be 87 33 be
       -0.030368088 -0.14016409 -0.2623227 -0.1753225
0003e0 1a 0f 55 be 01 0c e9 bc 75 9c 16 3c 8b 3f d3 bd
       -0.20806542 -0.028448107 0.009192576 -0.10314854
0003f0 45 d2 c9 3a 4d d8 52 bd d9 1c e0 bd 00 30 a6 bc
       0.0015397748 -0.05147581 -0.10943002 -0.02028656

main.3.bias f4 [4]
000000 21 69 65 bd e3 bd 24 3c d0 0f 9d bd 58 6d c3 bc
       -0.056008462 0.010055038 -0.076690316 -0.02385585

main.7.weight f4 [128, 324]
000000 6b 25 17 bd bc 59 e3 3c e5 64 f7 3c 5b 05 ef 3c
       -0.03690092 0.02775275 0.030199477 0.029177358
000010 44 31 1c 3c de 6a b0 bd 63 10 2d bd ef 99 5b bc
       0.00953323 -0.08614133 -0.042251956 -0.0134034
000020 6f 99 5a bd e2 50 fa bc 08 cb 1a bd 24 6f 3e 3d
       -0.053368982 -0.030556146 -0.037791282 0.04649271
000030 c6 64 9d bd 6c 9e 13 3d f1 c3 85 bd d9 11 76 bd
       -0.07685237 0.036039755 -0.065315135 -0.060075615
000040 6b 9f 93 bd 67 ba f6 3c b3 b8 82 bd d2 e0 ab bd
       -0.07208141 0.03011818 -0.06382885 -0.083924904
000050 7c 89 23 3d 79 d1 20 3d e7 2e a4 3d 21 42 8c 3d
       0.039926037 0.03926227 0.080167584 0.068485506
000060 ac a1 1f bd f9 f5 d0 bd 95 c9 84 bd d9 d9 61 3c
       -0.03897254 -0.102031656 -0.06483761 0.013784849
000070 6d a7 8c bb 6d d0 ea 3c 17 a1 c4 3c 0f 51 f3 3d
       -0.0042924196 0.028663838 0.024002595 0.11880695
000080 c9 19 9c 3d aa 9d 67 bd 2e 36 84 bd 5d 64 d1 3c
       0.07622106 -0.056546845 -0.064556465 0.025560552
000090 20 3b 67 bd 6c c8 36 3b 29 30 b9 3c 9b 02 40 3e
       -0.05645287 0.0027890457 0.022605972 0.18750994
0000a0 e1 bb a9 3d 66 64 0f 3e ac 02 8f bd 11 4f 58 3b
       0.08287788 0.14003143 -0.069829315 0.0033006112
0000b0 51 b5 0c 3c 80 3b 58 ba c9 35 e9 3c b9 1f b3 3d
       0.008588151 -0.0008248612 0.02846803 0.08746285
0000c0 20 73 69 3d 2a c9 28 3d 54 85 0d 3e d6 2c 3a 3c
       0.056994557 0.04120747 0.13820392 0.011363229
0000d0 4e 54 b9 bc 2e 55 78 bd 34 41 48 3d 28 4f bb 3b
       -0.022623207 -0.06062811 0.048890308 0.0057162233
0000e0 f4 5a c8 3d 4c 6d c9 3d f9 5e ff 3d 54 da c8 3d
       0.09782973 0.098353 0.124692865 0.09807268
0000f0 e1 33 b4 3d f4 d4 4a 3d e2 30 dc bc d1 6e be bd
       0.087989576 0.049519494 -0.026878778 -0.0929848
000100 5e f6 c4 3b cc bb 75 3d ea 7d cb 3d 31 1e 23 3e
       0.0060108146 0.05999355 0.099361256 0.15929486
000110 3f 97 45 3d 0b c7 ae bb b2 65 07 3d ef bc 3e bd
       0.048239943 -0.0053337864 0.03305597 -0.0465669
000120 2e 5b 99 bc 79 68 6b bd f7 0b 9e ba b8 c9 33 bc
       -0.018720236 -0.05747268 -0.0012058009 -0.0109733865
000130 bf 8f 87 3d db 45 42 3d 0f c1 78 3c 5e 86 39 bd
       0.06619214 0.0474299 0.0151827475 -0.04529416
000140 c9 e8 d0 3b eb f3 5d 3b da 77 43 bd bc e0 10 be
       0.0063754064 0.003386731 -0.04772172 -0.1414823
000150 94 d6 2b 3d 25 5d 86 3a 6f 71 3d 3d e2 d8 6b bd
       0.041952685 0.0010251148 0.046250757 -0.057579882
000160 db cd d6 bd c4 bf f9 3b fd 25 31 3d 70 d0 67 bd
       -0.104884826 0.007621737 0.04324912 -0.056595266
000170 4b ee 2d 3d 4c a1 5b bc e6 42 33 3d 4f 8f 15 3e
       0.042463582 -0.013405155 0.04376497 0.14605449
000180 36 0b 61 bd b9 9d c4 bc 08 6d b6 bc 2c 0e 2b 3d
       -0.054942332 -0.02400099 -0.022268787 0.041761562
000190 41 11 76 bd 3b 25 94 3c 9c aa ed bc 15 37 1f 3a
       -0.06007505 0.01808416 -0.029012017 0.00060735765
0001a0 b8 45 e1 ba 60 24 ba bd 60 f8 26 bd 0c 13 39 bc
       -0.0017186916 -0.09088969 -0.040764213 -0.011296045
0001b0 7b 6b 13 3d 34 e7 03 bd a3 89 55 bd 01 fa 9f bd
       0.035991173 -0.032202914 -0.052133214 -0.07811356
0001c0 71 19 e9 bd 57 7a 0c be 1d a7 14 bd d1 17 e9 bd
       -0.11381806 -0.13718544 -0.036292184 -0.11381496
0001d0 7e 5c eb bc ef 1a 72 3c f5 25 9c bd 45 68 a4 bd
       -0.028730627 0.014776929 -0.07624427 -0.080277
0001e0 56 f0 3b be 43 a8 c4 bd 53 28 8f bd 6c 3d 88 bd
       -0.183534 -0.09602406 -0.06990113 -0.0665234
0001f0 31 47 81 bd fc c9 9c bd 3b 92 73 bd c9 2c 06 bd
       -0.06312407 -0.07655713 -0.059465628 -0.032757554
000200 75 94 43 bc 80 e3 80 bd 85 fd 56 be 98 74 91 bd
       -0.01193725 -0.06293392 -0.20995148 -0.071023166
000210 cd 79 83 bd 7a 18 db 3b 37 29 38 3c 39 00 b3 bd
       -0.06419716 0.0066862674 0.011240295 -0.08740277
000220 94 ad 3a bd 5a 46 9a bc fa 0a c3 bd 0c a0 81 bd
       -0.045575693 -0.018832374 -0.09523578 -0.06329355
000230 c9 c2 c8 bc fc 3b b6 bd 5c 97 84 bd 4a 0d 67 bd
       -0.024506943 -0.0889816 -0.06474182 -0.056409158
000240 bc fb 8f bb c8 13 90 bd 79 93 2e bd 19 55 ad bd
       -0.0043940227 -0.07035023 -0.04262111 -0.08463497
000250 4e 7f 99 3c 0d 13 92 3d 7a 2e 91 bd c7 8c 89 bd
       0.018737461 0.0713254 -0.07088943 -0.06716304
000260 8a 42 6a bd 70 38 c7 bd 7d 4f 3d 3b 22 9f f2 bc
       -0.057192363 -0.097275615 0.002888649 -0.029616896
000270 d7 7c 02 3d 30 04 d4 3c 07 b9 3f 3d 71 b8 6d ba
       0.031857338 0.025880903 0.046807315 -0.00090683164
000280 58 b8 21 3d 03 95 4e bc 7d 41 59 bd c2 60 0a bd
       0.039482445 -0.012608769 -0.05304097 -0.03378368
000290 a6 09 85 3c c4 c1 1e bd 0e ee ac bc 60 61 94 bc
       0.016239952 -0.038759008 -0.021109607 -0.018112838
0002a0 21 47 07 3d 54 59 73 bc 60 39 3f bd ae bd e7 bc
       0.03302682 -0.01485284 -0.046685576 -0.028288689
0002b0 04 96 39 3c 87 04 4c 3d e9 5d 06 3d a1 6d 0e 3d
       0.01132727 0.049809005 0.032804403 0.03477252
0002c0 55 20 f3 bc be 90 4c bd 4b 52 30 bd d9 14 50 3d
       -0.029678503 -0.049942724 -0.04304723 0.050801132
0002d0 42 b4 c5 3c db 07 30 bd 22 73 de 3c a2 bb 1e bd
       0.024133805 -0.04297624 0.027154509 -0.03875316
0002e0 3d 93 de bc 3c 93 3c 3c 00 20 d7 39 47 6c 5b 3d
       -0.027169818 0.011509713 0.00041031837 0.05357006
0002f0 76 21 17 bd e0 a7 7c 3b 14 4d 5d 3c cc a3 40 bd
       -0.036897145 0.003855221 0.013507146 -0.04703121
000300 0d c2 18 3d a7 7e 4f 3d c8 fd 73 bc ec 0f 60 bc
       0.037294436 0.050657894 -0.014892049 -0.013675671
000310 b0 31 16 bc e8 70 f7 3b be 02 07 bd 30 6f 16 bc
       -0.00916712 0.0075513013 -0.0329616 -0.009181783
000320 1b 7e 60 3d f8 e6 70 bc 00 2b 57 39 14 6c 24 3c
       0.054807764 -0.014703505 0.00020520017 0.010035533
000330 73 a7 43 3d 0e df 36 bd f8 9a 3d bc dc cd 49 3c
       0.047767114 -0.044646315 -0.011572592 0.012317147
000340 a0 eb 94 bc 4e bc a9 bc 54 5a 4d bd 6e e6 f2 bc
       -0.018178761 -0.020719673 -0.05013497 -0.029650893
000350 82 77 e3 3c 6a 7f bc bc 28 a9 a1 bb f1 ff 4d 3d
       0.027766947 -0.023009975 -0.004933495 0.050292913
000360 7a 2f 8b 3c f0 6a 9c 3b 50 c7 47 3b 20 d4 29 bd
       0.016990412 0.00477349 0.003048379 -0.041462064
000370 44 f2 ce bc 57 b9 4f 3d cf 03 37 3d 31 98 2b 3d
       -0.025262006 0.050713863 0.044681367 0.041893188
000380 c0 36 3b bb e3 a0 62 3d 07 02 10 3d 8e 08 a3 3c
       -0.002856657 0.055329215 0.035158183 0.01990154
000390 ce 4d 08 bd c5 bc 00 3d 00 0e 54 3b 84 fa 55 3c
       -0.033277325 0.031430025 0.0032356977 0.013060216
0003a0 4e 57 13 bd 10 53 70 bc c2 ae f3 3c 44 d3 5c bd
       -0.035971932 -0.014668241 0.029746417 -0.053912416
0003b0 20 0b 5a bd bc 5a ad bc c0 d9 93 3a d2 d7 4b bd
       -0.053233266 -0.02116143 0.0011280105 -0.04976637
0003c0 1c eb 0d 3c dc 32 06 3c a1 aa 50 3d 32 d1 bf 3c
       0.0086620115 0.008190837 0.050943974 0.023415182
0003d0 05 63 8f 3c 24 6d 72 3d 4c 7c 17 3d b1 d9 2e bd
       0.01750327 0.059186116 0.036983773 -0.042688075
0003e0 7e 45 88 bd 91 90 7f bc ba 64 18 bc a9 db 8d bc
       -0.066538796 -0.015598432 -0.009301359 -0.017316656
0003f0 09 d5 89 3a c6 e5 09 3d c8 f0 24 3d 5c 30 a7 bb
       0.001051576 0.033666395 0.04026869 -0.0051022004

main.7.bias f4 [128]
000000 3c 59 f0 3c 7c 19 7d b9 cc 24 6e 3d 90 9b 73 3d
       0.029339425 -0.00024137454 0.05814056 0.059474528
000010 06 1f 96 3d f4 14 66 3d d5 79 e0 3c 6b 1e a7 3d
       0.07330136 0.056172326 0.027401844 0.08160099
000020 76 e1 51 bd 6b 59 34 bd 18 79 d4 bc a3 68 29 ba
       -0.051240407 -0.044030588 -0.025936648 -0.00064624305
000030 2a 97 2f bb 5b 4c 81 bc d4 cb 29 3d 81 9b 36 3c
       -0.0026792982 -0.01578348 0.04145415 0.011145473
000040 75 66 87 bd a7 30 b4 bc ca 63 2c 3d 6c db 58 bc
       -0.06611339 -0.021995855 0.042087354 -0.013235908
000050 04 29 35 3d 2f e4 58 bd ef 56 1b bd 1b e5 6d 3d
       0.04422857 -0.052951988 -0.037924703 0.05807982
000060 83 a4 b5 3c d2 c6 ba 3b f8 8b d5 bc 37 31 16 3d
       0.022173172 0.0056999708 -0.026067719 0.03666803
000070 73 1b 3d 3d 9e 25 65 bc e4 a5 09 3b 0c 88 80 3c
       0.046168756 -0.013986019 0.002100342 0.015689872
000080 cc 70 5d 3d 8c a3 ce 3b 64 84 90 3c e6 68 8d 3d
       0.05406265 0.0063061174 0.017641254 0.069047734
000090 8d 23 89 3c 6a 55 c1 bc 6a dd 00 3d 21 f7 41 bd
       0.016740585 -0.023600299 0.031461157 -0.04735482
0000a0 3d 9d ea 3c 42 2e 50 3d ed 8a 07 bd 10 89 43 bc
       0.02863943 0.050825365 -0.033091474 -0.011934534
0000b0 9c f1 83 3d e6 8a 76 ba e5 60 e8 b9 aa 01 ea 3c
       0.06442568 -0.0009404853 -0.0004432268 0.028565247
0000c0 bc e8 1c 3d 3e e5 ef bc a8 ba 48 bd 3a 9d 12 3d
       0.03830789 -0.029284116 -0.049006134 0.035794474
0000d0 4a 66 4c 3d 6e 18 17 bd f3 91 3b 3d f0 83 49 3c
       0.049902238 -0.036888532 0.045793485 0.012299523
0000e0 75 2d 22 3c 0f 74 6b bd cc 52 6e bb 6f 69 45 3c
       0.009898533 -0.05748373 -0.0036365269 0.012049063
0000f0 cb 93 55 3d ee 25 4c bd 52 1f 05 bd 9e 1b ad ba
       0.0521429 -0.04984086 -0.032500573 -0.0013207083
000100 2c 07 5a 3d 14 45 d2 3c 34 0c 35 bd aa b8 3d 3d
       0.053229496 0.025667705 -0.04420109 0.046318687
000110 ca 44 58 3d a5 46 15 bd e2 2c 28 3c 49 50 7a bc
       0.052799977 -0.036444325 0.010264607 -0.015277931
000120 c9 a2 4c 3d 99 f2 43 3d aa 90 0f bd 8e 40 80 3c
       0.04995993 0.04783878 -0.03505007 0.015655782
000130 77 65 16 bd 3d 34 14 3c 88 fb e3 bb 19 e7 0e bd
       -0.03671786 0.009045658 -0.006957475 -0.03488836
000140 42 be 56 3d a8 2e 35 bd f5 f7 d8 bb b9 11 6e 3d
       0.052427538 -0.044233948 -0.0066213557 0.05812237
000150 8b 3c 98 3d f4 fe 55 3c bf 6f 5f bd 77 b9 08 3d
       0.07433423 0.013061274 -0.05454993 0.033379998
000160 93 45 9b 3b 35 81 43 3d 16 d1 dc bc de 60 e9 bb
       0.0047385185 0.047730643 -0.026955169 -0.007122143
000170 80 14 44 3d 0b 9e 58 3d 79 8e 02 3c fb 1c 8e bc
       0.047871113 0.052885097 0.007968538 -0.017347803
000180 41 5e 4a bd 26 f7 02 3d 00 7a 13 bb 68 f2 57 bd
       -0.049406294 0.03197398 -0.0022503138 -0.05272141
000190 e2 c5 73 3d 06 93 99 bc ac 4a 49 bd 05 a3 63 3c
       0.059514888 -0.018746864 -0.04914348 0.013893847
0001a0 8a 6b ae bc 07 a4 2d 3d d3 fa 98 3d 0c b5 15 bc
       -0.021291513 0.042392757 0.07469716 -0.009137403
0001b0 20 46 82 3d 0b 13 ed 3c ff 80 e2 3c 44 8b 4e 3c
       0.063610315 0.028939744 0.0276494 0.012606446
0001c0 8e 0b 28 3d 98 21 14 3d f6 8b 00 bd 92 94 c1 3a
       0.041026644 0.03616485 -0.031383477 0.0014769009
0001d0 6b d9 48 bb b7 63 4f bd a5 bf 00 3d 7a 9a d7 bc
       -0.003064717 -0.050632205 0.031432766 -0.026318777
0001e0 a1 ac b3 bb 7a 80 3b 3d fc 78 0b 3d ec 67 8b 3c
       -0.0054832255 0.04577682 0.034050927 0.017017327
0001f0 81 0b 0c bd 70 ff 8e ba 4a da 2c bc b0 9e 55 3b
       -0.03419066 -0.0010909867 -0.010550091 0.0032595806

main.9.weight f4 [1, 128]
000000 76 a6 c4 3d cc a3 93 3c 52 4a 20 be b1 ab 3d be
       0.096020624 0.01802244 -0.15653351 -0.18522526
000010 5e ad 90 be ed d4 05 3e 16 d5 c1 bd e0 96 0c 3e
       -0.2825727 0.13069506 -0.09464471 0.13729429
000020 d0 05 8f be f7 3a 67 3b 82 da fd 3d 90 3e b2 bd
       -0.27934122 0.0035282949 0.12395193 -0.08703339
000030 85 7d 0d be 1a f0 ec 3d fc d8 5e be 4f eb 10 be
       -0.13817413 0.11569233 -0.2176246 -0.14152263
000040 2f a3 7b bd e0 0d 9f 3d bb 14 d2 bd 9b 05 fc bb
       -0.06143492 0.07766318 -0.1025786 -0.007691098
000050 12 a6 fd 3d 39 15 03 3d 59 1f f2 bd 5d 2c 03 3e
       0.12385191 0.03200266 -0.11822385 0.12809892
000060 4f 89 11 be e6 3c 54 3a e3 71 19 3e 83 32 33 be
       -0.14212535 0.0008096233 0.1498485 -0.17499737
000070 a9 3c 0b 3e 30 f2 05 be c9 42 43 3e 2d 61 46 be
       0.13597359 -0.13080668 0.19068445 -0.19373007
000080 fd 2b 18 3e 20 f3 d7 3d 0d e3 c5 bd 9a d8 ee 3d
       0.1486053 0.10544419 -0.09662447 0.11662407
000090 68 9d cb bd 72 33 fb bd f8 e9 21 be 55 33 23 bd
       -0.09942132 -0.12265672 -0.15811908 -0.039843876
0000a0 b6 89 10 be 66 57 9f bd de ba ad 3b d5 23 25 3c
       -0.14115033 -0.07780342 0.0053018173 0.010079344
0000b0 7e a9 fa bd 15 49 27 3e 41 1f 87 bd a9 d7 05 3e
       -0.12239359 0.16336472 -0.06597758 0.13070549
0000c0 82 d3 04 be 3b 83 95 be 4c 9f 68 bc 3e e3 3d be
       -0.12971309 -0.29201683 -0.014198136 -0.18543717
0000d0 f5 8e 01 be 95 76 64 be 12 7c c4 bd 07 78 c6 3d
       -0.1265219 -0.2231086 -0.09593977 0.09690862
0000e0 db 6a 06 3e 72 aa 9f bc c4 14 94 3e 05 a8 60 be
       0.131267 -0.019490454 0.28922093 -0.21939094
0000f0 ae ff f4 3d 7f 55 5e 3d b7 22 a5 be 2e c3 5c 3e
       0.119628295 0.054280754 -0.32253048 0.2155883
000100 d9 f1 75 bd c8 e4 34 3c 15 84 07 bd 86 fd 83 be
       -0.060045097 0.011040874 -0.033084948 -0.2577936
000110 47 91 56 be 6f bf ad bd ad 44 80 3d 66 66 0a 3e
       -0.20953856 -0.08483779 0.06263099 0.13515624
000120 7e 43 f9 3d 7d de f9 bd 6f 9a ff 3d 1c 62 1d be
       0.12171076 -0.122006394 0.12480628 -0.15369457
000130 63 55 33 3e 7d d5 bf 3d b7 8f f8 3d 92 1f 94 be
       0.17513041 0.093668915 0.121367864 -0.28930336
000140 59 28 49 be 19 af 37 be e2 3e 2e be fd 44 2e be
       -0.19644298 -0.17937888 -0.17016175 -0.17018504
000150 f7 26 10 3e 9a 72 17 3e 69 8b c7 3c 91 8e 93 be
       0.14077364 0.14789811 0.024358468 -0.28819707
000160 88 e8 90 bd 04 a3 f2 3d 72 87 32 be 69 d1 9f 3e
       -0.07075602 0.11847499 -0.17434481 0.31214455
000170 ed e1 88 be 05 0e 98 be 9e 64 2a 3e ed 6e 06 3e
       -0.26734868 -0.29698196 0.16639945 0.13128252
000180 e1 96 13 bd fb 5c 2e 3e 03 49 2e 3e e5 18 cc ba
       -0.03603256 0.17027657 0.1702004 -0.0015571384
000190 c6 d6 03 3e 26 42 5e be 33 52 10 3e 77 0b 17 be
       0.12874898 -0.21704921 0.14093857 -0.14750467
0001a0 a3 24 1d 3d be bf 67 be d1 6a 3f 3e eb c8 c8 bd
       0.038365018 -0.22631738 0.18693091 -0.09803947
0001b0 d6 9a 0f be 61 60 07 be 56 25 e6 bd 4e 0a 4d 3d
       -0.14023909 -0.1322036 -0.1123759 0.050058655
0001c0 e4 76 c3 be 2a e1 26 3e 51 ba 0b bd 27 c9 12 3e
       -0.38176644 0.16296831 -0.034113232 0.14334546
0001d0 4b c9 2c be e0 12 ac 3b 9a e6 1a 3e 7e a2 06 3e
       -0.16873662 0.0052512735 0.1512703 0.13147923
0001e0 1e ce de 3c 2a ca 12 3e 48 23 25 3e dd 84 3e 3e
       0.027197894 0.14334932 0.1612674 0.18605371
0001f0 7a c9 88 3b f3 fa 63 b8 09 b7 d4 3d 2d 19 c5 bc
       0.0041744085 -5.4354732e-05 0.10386474 -0.024059856
